app/src/main/assets/bharati_vowels_traced.pt (torch, 97421 bytes, 8 tensors)

weight f4 [10, 1, 5, 5]
0	0xbcf07c8d	-0.029356265
1	0xbe66bb27	-0.2253233
2	0xbe12539c	-0.14289707
3	0xbba85da7	-0.0051381174
4	0xbdeb1c05	-0.11479954
5	0xbe364caa	-0.17802683
6	0xbe8752c9	-0.26430348
7	0x3c57a37b	0.013161535
8	0xbe96df61	-0.294673
9	0xbe4773a5	-0.19477709
10	0xbe38c2d6	-0.18043074
11	0x3dcfec02	0.10152437
12	0xbc7c53cd	-0.015400839
13	0xbd07d39e	-0.0331608
14	0x3df65ee0	0.12029815
15	0x3e7ed0c6	0.24884328
16	0x3e95b331	0.29238275
17	0x3d7bd9bc	0.061486945
18	0x3e0944b1	0.1340511
19	0x3e83a23b	0.2570971
20	0x3e188d3e	0.1489763
21	0x3e0050b5	0.12530787
22	0x3e0d88bc	0.13821691
23	0x3e54662f	0.20742105
24	0x3d9ef559	0.0776164
25	0xbda10755	-0.078627266
26	0xbe790e56	-0.24321875
27	0x3e50e175	0.20398505
28	0x3de799cf	0.113086335
29	0x3e86f91f	0.2636194
30	0xbe19b043	-0.15008645
31	0xbe8270af	-0.25476596
32	0xbe2027e1	-0.15640213
33	0x3e904604	0.28178418
34	0x3e1e8151	0.15479018
35	0xbe7b85bd	-0.24562736
36	0xbe051737	-0.12997137
37	0xbb33548a	-0.0027363622
38	0x3e8674e1	0.26261047
39	0xbd139fc2	-0.03604103
40	0xbd9ec2aa	-0.07751973
41	0xbd9e7148	-0.077364504
42	0x3e45377c	0.19259447
43	0x3e119f13	0.14220838
44	0x3cf68828	0.030094221
45	0xbd82485e	-0.06361459
46	0xbe26f7b8	-0.16305435
47	0x3e79229b	0.24329607
48	0x3da35426	0.079750344
49	0x3dfed58b	0.12443074
50	0x3df9a432	0.12189521
51	0xbdce0cf7	-0.100610666
52	0x3d79d01c	0.060989484
53	0xbdb94f33	-0.09048309
54	0x3e246a61	0.16056205
55	0xbd298c4c	-0.041393563
56	0xbd0a6e74	-0.033796743
57	0xbdd2f36a	-0.10300334
58	0x3dbf72ca	0.09348066
59	0xbd9f25c0	-0.07770872
60	0xbe031b1a	-0.12803307
61	0xbdd33490	-0.1031276
62	0xbe13c296	-0.14429697
63	0xbe012d60	-0.12614965
64	0x3c7af350	0.015316799
65	0x3e1ab65f	0.15108632
66	0xbe2f1e23	-0.1710134
67	0x3e239781	0.15975763
68	0xbe3aaeca	-0.18230739
69	0xbdc6fe3a	-0.097164586
70	0xbe3840f3	-0.17993526
71	0x3df6d4f2	0.12052335
72	0xbda8d413	-0.08243575
73	0xbdae0bc0	-0.08498335
74	0xbe3d015b	-0.18457548
75	0xbe888116	-0.26660985
76	0xbe4e493d	-0.20145126
77	0xbe67c792	-0.22634724
78	0x3e065bd0	0.13120961
79	0x3da87199	0.08224792
80	0xbe8a23e5	-0.2698051
81	0xbe6f9e9a	-0.23400345
82	0xbe7e237f	-0.24818228
83	0xbddbb806	-0.10728459
84	0x3e8cf194	0.2752806
85	0xbe1a88ce	-0.1509125
86	0xbc2f5b24	-0.010702882
87	0x3e1f3efa	0.15551367
88	0x3e2ff4b5	0.17183192
89	0x3e322d6b	0.17400138
90	0xbe47f253	-0.19526033
91	0xbe078de4	-0.1323772
92	0x3d51b0bd	0.05119394
93	0x3e94dae9	0.29073265
94	0x3e1b545d	0.15168901
95	0x3d8acb8e	0.06777106
96	0x3e3f973e	0.18710038
97	0x3d839496	0.06424825
98	0x3e9c6542	0.30546004
99	0x3dc8a031	0.09796179
100	0x3d4fc586	0.050725482
101	0xbc42ded1	-0.011893944
102	0x3e3626a6	0.1778818
103	0x3e531a2a	0.2061545
104	0xbe45ba02	-0.19309238
105	0x3dd7d9c8	0.10539585
106	0xbe11af3b	-0.14227001
107	0xbd822502	-0.06354715
108	0x3d92765c	0.071514815
109	0xbe10019f	-0.14063118
110	0x3e360b65	0.17777784
111	0x3e1919c0	0.14951229
112	0x3e325f60	0.17419195
113	0x3e5bd23d	0.21466918
114	0xbe8e283d	-0.27765074
115	0x3e411642	0.18856147
116	0xbe8f0b12	-0.27938133
117	0x3dcd55a0	0.10026097
118	0xbdb3f76f	-0.087874286
119	0xbdfff77d	-0.124983765
120	0xbe10bfbc	-0.14135641
121	0xbe8009d5	-0.250075
122	0x3d932ae4	0.07185915
123	0xbe3a1d26	-0.18175182
124	0x3e423828	0.18966734
125	0xbe714000	-0.2355957
126	0x3dad78d9	0.084703155
127	0xbe88cea3	-0.2672015
128	0xbdfe67e1	-0.12422157
129	0x3cae2c55	0.021261374
130	0xbe6ad9c4	-0.22934633
131	0x3e68377f	0.2267742
132	0x3d81e3f2	0.06342305
133	0xbe8a1bde	-0.26974386
134	0x3e48cf05	0.19610222
135	0x3e6ed92f	0.23325036
136	0x3e860e86	0.26182956
137	0x3d6bb10b	0.05754189
138	0xbe994432	-0.2993484
139	0x3db8d172	0.090243235
140	0x3d8b2e62	0.06795956
141	0xbd6d7d26	-0.05798068
142	0x3e38a7e1	0.1803279
143	0xbe41124a	-0.18854633
144	0x3e78d25a	0.24298993
145	0x3e253d28	0.1613661
146	0x3e70f3b9	0.23530473
147	0x3e7b1b50	0.24522138
148	0xbe826a6c	-0.25471818
149	0x3e36a4c3	0.17836289
150	0x3ea12315	0.31472078
151	0x3c198107	0.009369141
152	0x3e7f6bc0	0.24943447
153	0x3e999f51	0.3000436
154	0x3e200ab8	0.15629089
155	0x3e733f3b	0.2375459
156	0x3d96ce2e	0.073635444
157	0x3e65fe12	0.22460201
158	0x3e457357	0.1928228
159	0x3d6afbd5	0.057369072
160	0x3cb53aff	0.022122858
161	0xbd94dbdd	-0.07268498
162	0x3e1a49c0	0.15067196
163	0xbc8dcabe	-0.01730859
164	0xbd059e81	-0.032621864
165	0xbe7ad040	-0.24493504
166	0xbe8f848c	-0.28030813
167	0xbd97a1e6	-0.074039266
168	0xbe123dbc	-0.14281362
169	0xbe00efbe	-0.12591454
170	0x3d286b84	0.04111816
171	0xbe898adc	-0.26863754
172	0xbd420f3a	-0.047377802
173	0xbe8e58e3	-0.2780219
174	0xbdcb14e9	-0.09916098
175	0x3bce6f46	0.006299886
176	0x3e335448	0.1751262
177	0xbd0be910	-0.034157813
178	0x3de86ee7	0.11349278
179	0xbe5b6bd2	-0.21427849
180	0x3d0bbd0f	0.034115847
181	0xbc4c46f4	-0.012468088
182	0x3e908c01	0.28231815
183	0x3df3806c	0.11889729
184	0xbe6d00f0	-0.23144889
185	0x3e881f30	0.26586294
186	0x3e2e924d	0.17047997
187	0x3c3327d7	0.0109347915
188	0xbd79e8ed	-0.06101315
189	0xbe54ca49	-0.2078029
190	0xbc8f4640	-0.017489552
191	0xbe234d97	-0.15947567
192	0xbd8e5340	-0.069494724
193	0xbe7b4e6b	-0.24541633
194	0xbe3bcccc	-0.18339843
195	0x3e2ce9f1	0.16886117
196	0x3d6b4acd	0.057444382
197	0x3e6f9cc1	0.2339964
198	0xbd02ca6b	-0.031931322
199	0xbe136ae2	-0.14396241
200	0x3dc136ae	0.094342574
201	0x3e99104f	0.29895255
202	0x3e54e800	0.20791626
203	0x3dd04384	0.101691276
204	0xbe8e4ecc	-0.27794492
205	0x3e887b18	0.26656413
206	0x3dd375af	0.10325181
207	0xbdb76b4f	-0.08956014
208	0x3dce45e0	0.10071921
209	0xbe4de44e	-0.20106623
210	0x3e2536f5	0.16134246
211	0x3d777b6f	0.06042045
212	0xba69d91b	-0.0008920596
213	0x3e1f5970	0.15561461
214	0xbcf137c8	-0.029445544
215	0x3e3830d0	0.1798737
216	0x3e959df9	0.29222086
217	0xbc3117af	-0.010808869
218	0xbe13dd81	-0.14439966
219	0xbe587350	-0.21137738
220	0xbd491c9d	-0.049099553
221	0x3dcbd885	0.09953407
222	0xbe0974ff	-0.13423537
223	0xbdad673b	-0.08466955
224	0xbe58ea12	-0.2118304
225	0xbe139490	-0.14412141
226	0x3e38dc03	0.18052678
227	0x3e89904d	0.26867905
228	0x3e15fbb5	0.146468
229	0x3e6012b4	0.21882135
230	0x3e4c2f7f	0.19939993
231	0xbe8215e6	-0.25407332
232	0x3e123543	0.1427813
233	0x3da0aa81	0.07845021
234	0x3d8d832f	0.06909787
235	0xbdc03370	-0.09384811
236	0xbe57e5ee	-0.21083805
237	0x3dc5a143	0.09649899
238	0x3e923270	0.28554106
239	0x3e6de36a	0.23231283
240	0xbe4b3576	-0.19844612
241	0xbe830594	-0.25590193
242	0xbcc7ea6f	-0.024403779
243	0x3d8ee25d	0.06976769
244	0xbe82a1df	-0.25514123
245	0x3db7a298	0.08966559
246	0xbe79f536	-0.24409947
247	0x3dfe1025	0.12405423
248	0xbdefc052	-0.11706604
249	0xbe8dc80c	-0.27691686

bias f4 [10]
0	0x3db99b39	0.090628095
1	0xbd46a5db	-0.048498016
2	0x3d8064c2	0.06269218
3	0x3e5e0bfe	0.21684262
4	0x3e1b03b7	0.15138136
5	0xbe0a2681	-0.1349125
6	0x3d3b4f5b	0.045729976
7	0x3e38bba8	0.18040335
8	0xbdeb6256	-0.114933655
9	0x3e39390f	0.18088172

weight f4 [20, 10, 5, 5]
0	0xbe0281dd	-0.12744851
1	0xbe15a13e	-0.1461229
2	0xbdf28da3	-0.11843421
3	0xbd014606	-0.03156092
4	0xbbaa5010	-0.0051975325
5	0x3dec464e	0.11536847
6	0x3e261c17	0.16221653
7	0x3d46fa05	0.04857828
8	0x3c5b1b4c	0.013373207
9	0xbdf7a256	-0.1209151
10	0x3e11771d	0.14205594
11	0x3e171005	0.14752205
12	0x3d596fe1	0.05308521
13	0x3e0642eb	0.13111465
14	0x3c4320ac	0.011909645
15	0x3d32111b	0.043473344
16	0xbe101802	-0.14071658
17	0x3d9e3745	0.077253856
18	0x3dc25f96	0.09490888
19	0x3e1194fe	0.14216992
20	0x3cd58f9c	0.026069455
21	0xbc95c670	-0.018283099
22	0xbe1ff578	-0.15620983
23	0xbddfae48	-0.109219134
24	0xbdb9c9fa	-0.09071727
25	0xbdb47a1e	-0.088123545
26	0xbcba85ad	-0.02276882
27	0x3d5da477	0.054111924
28	0x3dbeb2d8	0.093114555
29	0xbd84079c	-0.06446764
30	0xbde91820	-0.113815546
31	0x3cce8aa1	0.025212588
32	0x3d818cf9	0.063257165
33	0x3dc0e726	0.09419088
34	0x3d2d9f83	0.04238845
35	0xbd4b5258	-0.049639076
36	0x3ca21958	0.019787475
37	0x3d8a3a23	0.0674937
38	0x3d109a24	0.03530325
39	0x3df28b29	0.11842949
40	0xbde81695	-0.11332432
41	0xbe08ccd6	-0.13359389
42	0x3d9080a6	0.07055788
43	0xbdc7e104	-0.09759715
44	0x3dce29f3	0.10066595
45	0xbd2db2f8	-0.042407006
46	0xbca5b821	-0.020229401
47	0xbcec2a77	-0.028828843
48	0xbd538767	-0.0516428
49	0x3d2eed3c	0.042706713
50	0xbd232397	-0.039828863
51	0x3d47fc8a	0.048824824
52	0xbd5b6ecb	-0.053572457
53	0xbb115230	-0.0022174232
54	0xbc4abbf0	-0.012373909
55	0x3d086b02	0.033305176
56	0x3d6eaea2	0.05827201
57	0x3d345d54	0.044034317
58	0x3cb25860	0.021770656
59	0x3d2c8c00	0.042125702
60	0x3d1df898	0.038567156
61	0xbd63ab21	-0.055583123
62	0x3d4a9f0a	0.049468078
63	0xbd07d9ee	-0.03316682
64	0x3d12a51c	0.03580199
65	0xbcefe76e	-0.029285159
66	0xbd53cb68	-0.051707655
67	0x3c7a04f0	0.015259966
68	0xbcd660f6	-0.026169281
69	0xbd4d8eba	-0.050184943
70	0x39afab00	0.00033506006
71	0xbd7a09d3	-0.061044525
72	0x3cbf33ac	0.023340069
73	0x3c426738	0.01186543
74	0xbb3b3d30	-0.0028570406
75	0xbe268846	-0.16262922
76	0xbe0fe4e8	-0.14052165
77	0xbd660131	-0.05615348
78	0xbdfe8297	-0.12427252
79	0x3d9599d6	0.073047325
80	0xbbe2ec46	-0.0069251386
81	0x3d86a519	0.06574459
82	0x3e07ac4c	0.1324932
83	0x3d9e5153	0.07730355
84	0xbdeafc87	-0.11473947
85	0xbd4b5bad	-0.049647976
86	0x3d4f4c45	0.050609846
87	0x3e27ddd5	0.16393216
88	0xbd1d02e7	-0.038332846
89	0x3ce9ee5f	0.028556047
90	0xbe098120	-0.13428164
91	0x3d13ddbe	0.03610014
92	0xbca5301d	-0.020164544
93	0xbde6e172	-0.11273469
94	0x3e09adf0	0.13445258
95	0xbe007560	-0.12544775
96	0xbb974365	-0.0046161884
97	0xbdaa07b2	-0.08302249
98	0xbe22de5b	-0.15905134
99	0x3d2bf3ae	0.041980438
100	0x3d7000e1	0.05859459
101	0x3dd23b8c	0.10265264
102	0x3d99b09b	0.07504388
103	0x3dafa0e2	0.08575608
104	0xbc7d52b0	-0.015461609
105	0x3dd788db	0.1052415
106	0xbd219568	-0.039449126
107	0x3d3eb4b3	0.046559047
108	0x3dec39e8	0.11534482
109	0x3d3092c0	0.0431087
110	0x3dcffe70	0.10155952
111	0x3d07a101	0.03311253
112	0x3d5312e3	0.051531684
113	0x3cfe915b	0.03107517
114	0x3db4f989	0.088366576
115	0x3d95ecb5	0.07320539
116	0xbc56fdbc	-0.013122018
117	0xbc9259c0	-0.017865062
118	0x3c9a1339	0.018807994
119	0x3d12d390	0.035846293
120	0x3dc74236	0.097294256
121	0x3d812a98	0.06306952
122	0xbd4c9033	-0.049942207
123	0x3de6b6ca	0.11265333
124	0x3e19f261	0.15033866
125	0xbda94d35	-0.08266679
126	0xbdd6ed03	-0.10494425
127	0xbd3b770a	-0.04576782
128	0x3cce4b25	0.025182316
129	0x3b7b6acf	0.0038363223
130	0xbd96e943	-0.0736871
131	0x3dd2fc14	0.10301986
132	0x3da6dd9d	0.08147738
133	0xbc88a882	-0.016681913
134	0xbdb1ede2	-0.08687951
135	0xbd512a1f	-0.05106556
136	0x3d5cc0f9	0.05389497
137	0x3d05d292	0.03267152
138	0x3d93b28b	0.07211789
139	0xbd9dee1f	-0.077114336
140	0xbd30bb6e	-0.043147497
141	0x3d4ebe71	0.050474588
142	0xbc792ccd	-0.015208435
143	0x3da014e0	0.078164816
144	0xbdd8d623	-0.10587718
145	0x3cf74396	0.030183595
146	0xbdccfbd5	-0.10008971
147	0x3b24a2f5	0.0025121544
148	0x3da80fcf	0.0820614
149	0xbdffdd78	-0.12493414
150	0x3e25feb4	0.16210443
151	0x3e1d8b50	0.15385175
152	0x3d754967	0.059884455
153	0x3dc6c0ba	0.097047284
154	0xbdf99bbd	-0.12187908
155	0x3c66352f	0.014050766
156	0x3c0683da	0.008210147
157	0x3d917a4e	0.07103406
158	0x3cf667ca	0.030078787
159	0x3d5d07c6	0.05396249
160	0xbdf1f252	-0.11813797
161	0xbe19a7e6	-0.15005454
162	0xbde87bd4	-0.11351743
163	0xbd756b62	-0.05991686
164	0x3d3a3806	0.045463584
165	0xbda83996	-0.08214109
166	0xbba8cd06	-0.005151394
167	0x3d9d18c8	0.07670742
168	0xbdb92f0a	-0.09042175
169	0x3d92e801	0.071731575
170	0x3d39682c	0.04526536
171	0x3c9e31f9	0.019310938
172	0x3e1880f5	0.14892943
173	0x3d879582	0.06620313
174	0x3e12b2f5	0.14326079
175	0x3da8e115	0.08246056
176	0x3dbb4e5e	0.09145807
177	0xbcd22a29	-0.02565487
178	0xbd963156	-0.07333629
179	0xbd79318f	-0.06083828
180	0x3da86573	0.08222475
181	0xba1753f7	-0.00057727046
182	0xbdae44fb	-0.08509251
183	0x3dcab131	0.09897078
184	0xbd894fec	-0.06704697
185	0x3e038acb	0.12845914
186	0x3d1a34c9	0.037647996
187	0x3d360235	0.0444357
188	0x3de2a5a1	0.110667475
189	0xbd2f0860	-0.042732596
190	0x3d2842f6	0.041079484
191	0xbd227d45	-0.039670248
192	0x3d195c8e	0.037441783
193	0x3d9cbbdd	0.076530196
194	0xbd0e94df	-0.034809943
195	0x3d9eded6	0.07757346
196	0xbcad2462	-0.021135513
197	0x3d668031	0.056274597
198	0x3e2c8763	0.16848521
199	0x3c52b752	0.01286109
200	0x3ddf23a8	0.10895473
201	0x3c87b6e9	0.01656671
202	0xbe154066	-0.14575347
203	0xbd9680e3	-0.07348802
204	0x3da0bd72	0.07848634
205	0x3db658e5	0.08903674
206	0xbcd965fc	-0.026537888
207	0xbd9f632c	-0.077825874
208	0xbd087c51	-0.033321682
209	0xbdbe4e56	-0.09292285
210	0x3d2e750a	0.042592086
211	0xbdb2b66c	-0.087262005
212	0xbe293774	-0.1652506
213	0x3d8e5c40	0.06951189
214	0xbddcc7c9	-0.107802935
215	0x3d78ab7d	0.06071042
216	0x3dc691e3	0.096957944
217	0x3da5d1c3	0.080966495
218	0x3d656275	0.0560021
219	0xbd93df5e	-0.07220338
220	0xbbed4da8	-0.0072419234
221	0x3d641b16	0.055689894
222	0x3e0aa6ff	0.13540266
223	0x3d903c8c	0.070427984
224	0xbc256e41	-0.010097087
225	0x3e19982a	0.14999452
226	0x3e25010c	0.1611368
227	0x3e2bcc7a	0.1677722
228	0x3dcca3f5	0.0999221
229	0xbd3eeddb	-0.046613555
230	0xbd6afd7f	-0.05737066
231	0xbe047053	-0.12933473
232	0x3e12565d	0.14290757
233	0x3e25ad57	0.16179405
234	0x3e0df218	0.13861883
235	0xbe1e914d	-0.15485115
236	0xbd6008bb	-0.054695826
237	0xbdcf3529	-0.10117561
238	0x3d9ca685	0.076489486
239	0x3d656595	0.05600508
240	0xbd7291de	-0.05922114
241	0xbd4eb2f6	-0.05046364
242	0x3cb9660d	0.02263167
243	0xbc9031c6	-0.017601859
244	0x3e0252c9	0.12726893
245	0xbcbf4a93	-0.02335099
246	0x3de524bf	0.111886494
247	0x3e203a54	0.1564725
248	0x3dbf2ccc	0.09334716
249	0x3e18ef2c	0.14934987
250	0x3d9dc733	0.0770401
251	0x3d94bcab	0.07262548
252	0x3e147ab4	0.14499933
253	0x3de7b2e6	0.11313419
254	0x3d8731a1	0.06601263
255	0xbdbce694	-0.09223667

bias f4 [20]
0	0x3c7ed0b2	0.0155526865
1	0x3d6f098e	0.05835872
2	0xbcb134f2	-0.021631692
3	0xbd82c1c4	-0.06384614
4	0xbd54f301	-0.05198956
5	0x3d7dc9b3	0.061959933
6	0xbd02d085	-0.03193714
7	0x3cb89e99	0.022536563
8	0xbd089b44	-0.033351198
9	0xbd996b56	-0.07491176
10	0xbd8295b6	-0.06376211
11	0xbc91da9e	-0.01780444
12	0x3c937b41	0.018003108
13	0xbc890832	-0.01672754
14	0xbd172047	-0.036896016
15	0x3dae7b90	0.085196614
16	0x3c243ad9	0.010023796
17	0xbd5587de	-0.052131526
18	0xbbb521d7	-0.0055277157
19	0x3da74f3e	0.08169411

weight f4 [50, 320]
0	0x3dbc1a2f	0.091846816
1	0x3d488015	0.048950274
2	0x3d1ce2f4	0.038302377
3	0x3e0581a1	0.13037731
4	0xbd4522c8	-0.048128873
5	0xbd685ad6	-0.056727253
6	0xbdee8a96	-0.11647527
7	0x3d4b3bdd	0.049617637
8	0x3be33568	0.0069338568
9	0x3d281f57	0.041045513
10	0x3e07fd1b	0.13280146
11	0x3c8b1b7c	0.016980879
12	0xbcd89163	-0.026436513
13	0xbd9c05bf	-0.076182835
14	0x3e06e8c0	0.13174725
15	0xbdd4afe9	-0.10385115
16	0x3d5fad88	0.05460885
17	0xbb26d08c	-0.0025453893
18	0xbde24859	-0.110489555
19	0x3e0e708f	0.13910125
20	0xbc47000f	-0.01214601
21	0x3d240975	0.04004808
22	0x3bbcaa1e	0.0057575842
23	0x3e17dfa3	0.14831404
24	0xbd23c8f2	-0.03998656
25	0x3bc92be3	0.006139265
26	0xbd86d45b	-0.06583472
27	0x3cff02bb	0.031129232
28	0x3d8c274c	0.06843433
29	0x3d1f5db6	0.03890773
30	0x3dc7b693	0.0975162
31	0x3c41b557	0.01182302
32	0xbd119bd4	-0.035549
33	0xbdb902cc	-0.090337366
34	0x3dd11eb2	0.10210933
35	0x3d75ce2d	0.060011078
36	0xbdc47c49	-0.09594018
37	0x3d515828	0.051109463
38	0xbca964d3	-0.02067796
39	0x3d24f0d6	0.04026874
40	0x3d4d8d4a	0.050183572
41	0x3d824f4e	0.063627824
42	0x3dac1fc1	0.08404494
43	0xbd3880be	-0.045044653
44	0x3dc060b0	0.09393442
45	0xbc42cc93	-0.011889595
46	0x3d1ea1b7	0.038728442
47	0x3d1a38d8	0.037651867
48	0xbd2dbb29	-0.042414818
49	0xbd447711	-0.047965113
50	0x3d15fee8	0.03662005
51	0xbd286d82	-0.04112006
52	0x3cad96b2	0.021190021
53	0xbd0a0aaf	-0.033701595
54	0x3d6e967e	0.05824899
55	0x3d5d142d	0.05397432
56	0x3c86e054	0.01646439
57	0x3d119a34	0.03554745
58	0xbd3d0e26	-0.04615607
59	0xbca10308	-0.019654766
60	0x3caaaef4	0.020835377
61	0xbd6c8b89	-0.05775026
62	0xbd29a5bb	-0.04141782
63	0x3d02c8c1	0.031929735
64	0xbd81e485	-0.06342415
65	0x3cdf0636	0.027224641
66	0x3d7b2234	0.061311916
67	0xbd151a67	-0.036402132
68	0xbd61ac7f	-0.055096146
69	0xbd396b09	-0.045268092
70	0x3b45e816	0.0030198148
71	0x3def8774	0.116957575
72	0x3d06e4b5	0.032932956
73	0xbd8249bf	-0.06361722
74	0x3c51265e	0.012765495
75	0x3d1e93db	0.038715225
76	0x3db976e0	0.09055877
77	0xbcfda745	-0.03096355
78	0x3d15d163	0.03657664
79	0x3e01ce61	0.12676384
80	0xbe034617	-0.12819706
81	0x3e01f600	0.12691498
82	0xbcb26a7e	-0.021779295
83	0x3da8617a	0.08221717
84	0x3cec2698	0.028826997
85	0x3d3ecaa7	0.046579983
86	0xbcdea27e	-0.027177092
87	0x3cd2e877	0.025745614
88	0x3bc17faa	0.0059051113
89	0xbd0a467d	-0.03375863
90	0x3c31df91	0.010856525
91	0x3d605360	0.054767013
92	0x3d139756	0.036032997
93	0xb9d4fdb5	-0.00040624817
94	0xbc864cdd	-0.016394073
95	0x3dced3a6	0.100989625
96	0xb9a77300	-0.00031938404
97	0x3cfe60c7	0.031052006
98	0x3d337b86	0.043818973
99	0x3cdb99cc	0.026806735
100	0xbb0e5880	-0.002172023
101	0x3cb3f20c	0.021966003
102	0xbd354f9f	-0.044265386
103	0x3d35ef6a	0.044417776
104	0xbd0a7fa0	-0.03381312
105	0xbcbec6ec	-0.023288213
106	0x3cf3ef4c	0.029777192
107	0xbc4e75b0	-0.012601301
108	0x3c50a710	0.012735143
109	0xbd4f916e	-0.050675802
110	0xbc4748b0	-0.012163326
111	0xbc6e8ab0	-0.014559433
112	0xbd4d9813	-0.050193857
113	0xbd277c9c	-0.04089032
114	0x3d8b6272	0.06805886
115	0x3d2e01ea	0.042482294
116	0x3c58b97d	0.013227818
117	0xbc7d715f	-0.015468924
118	0x3cd0ee5f	0.02550429
119	0x3d1c02e2	0.038088687
120	0xbd46f3d0	-0.04857236
121	0xb9ad8e47	-0.00033103136
122	0x3c9f8f1a	0.019477416
123	0x3d858fb9	0.065215535
124	0x3d1f1a6f	0.03884357
125	0x3dc5a7d1	0.09651149
126	0x3d45d563	0.048299205
127	0xbb9430c0	-0.004522413
128	0x3dac37c1	0.08409072
129	0x3bcc27a5	0.006230312
130	0xbdc0d705	-0.09416012
131	0x3e0ee392	0.13953999
132	0xbd9dd42a	-0.07706483
133	0x3d3a4ae9	0.045481596
134	0xbdf08423	-0.11743953
135	0x3e0554e1	0.1302066
136	0x3d6d906d	0.057999063
137	0xbdbad7a9	-0.09123165
138	0x3d8b33a9	0.06796963
139	0x3cc0d5b4	0.023539402
140	0xbcba9c75	-0.022779683
141	0x3c779af9	0.015112632
142	0x3d02599b	0.031823736
143	0xbd66f05d	-0.056381572
144	0xbc40831b	-0.011750008
145	0xbca4a394	-0.020097531
146	0xbdca32d2	-0.098729745
147	0x3e219e2e	0.15782997
148	0xbdec026f	-0.11523902
149	0x3db3cd7b	0.08779427
150	0xbda72000	-0.081604004
151	0xbcdda401	-0.027055742
152	0x3da486c5	0.08033518
153	0xbcf38e1c	-0.029730849
154	0xbd24673b	-0.04013751
155	0xbd3b2c9e	-0.045696847
156	0x3d94edd2	0.07271923
157	0x3dd7925d	0.105259635
158	0x3d69ecc0	0.057110548
159	0x3ca58322	0.02020413
160	0x3e16a9d6	0.14713225
161	0xbde60c17	-0.11232775
162	0xbc85665b	-0.016284158
163	0x3df927ce	0.12165795
164	0xbd30ea03	-0.04319192
165	0xbdedd2f4	-0.11612502
166	0x3d514741	0.051093344
167	0x3daa2a41	0.083088405
168	0x3c97fc90	0.018553048
169	0x3e07b4e3	0.13252597
170	0xba49b560	-0.00076945685
171	0xbd839538	-0.064249456
172	0xbc6db192	-0.014507668
173	0x3d1e6583	0.038671028
174	0x3d386681	0.04501963
175	0x3d5735dd	0.052541602
176	0x3b2f7090	0.0026769973
177	0x3ccd7aa4	0.025082894
178	0x3ad69a20	0.0016372837
179	0xbd2ab7a9	-0.04167906
180	0x3ca1bcec	0.019743405
181	0xbd4bc5cd	-0.049749184
182	0xbd449f8e	-0.048003726
183	0x3d57d750	0.052695572
184	0xbc7bc6b8	-0.015367202
185	0x3d56c6e2	0.052435763
186	0xbd265e18	-0.04061708
187	0xbc0ad98c	-0.008474719
188	0x3d4bf6a2	0.049795754
189	0xbbf22c98	-0.00739057
190	0x3d4793ba	0.048724867
191	0x3d48b53c	0.049000964
192	0xbd50d5ab	-0.05098502
193	0x3df35b61	0.118826635
194	0xbda04208	-0.078250945
195	0x3d74f76c	0.059806272
196	0xbcc8927c	-0.024483912
197	0x3dbd924f	0.09256422
198	0xbe043b53	-0.12913255
199	0x3d6bc0e8	0.057557017
200	0x3c5021b5	0.012703349
201	0xbb5e31a6	-0.0033904104
202	0x3d9cae7c	0.07650468
203	0x3d7f1311	0.062274043
204	0x3d1a539f	0.037677404
205	0xbd810a76	-0.063008234
206	0x3df6afb9	0.12045235
207	0xbe01523f	-0.1262903
208	0xbc531f44	-0.012885872
209	0xbdb69650	-0.089153886
210	0x3dbef648	0.09324318
211	0xbd7c6025	-0.061615128
212	0xbaf82a9b	-0.0018933596
213	0xbdeb908b	-0.11502179
214	0xbd904600	-0.070446014
215	0xbcde8381	-0.027162315
216	0x3adba6eb	0.001675812
217	0x3df5e9a3	0.12007453
218	0x3d186c7d	0.037212837
219	0x3c82b174	0.015953757
220	0x3d98f387	0.07468324
221	0x3db232e1	0.08701111
222	0x3c10a1af	0.008827611
223	0x3ccd7cad	0.025083864
224	0xbc26922d	-0.010166687
225	0x3d720bb1	0.05909318
226	0x3daae6b8	0.08344787
227	0x3d6f0e06	0.058362983
228	0xbc10e502	-0.008843662
229	0xbba1dbca	-0.004939531
230	0x3c38e969	0.011286118
231	0x3d374709	0.04474548
232	0x3cbd56f0	0.023112744
233	0x3dbc04f5	0.09180633
234	0xbd7d676a	-0.0618662
235	0x3cd0fc34	0.025510885
236	0xbcc85cc8	-0.024458304
237	0x3de7d6e2	0.113202825
238	0x3d884253	0.06653275
239	0x398be255	0.00026680777
240	0x3dbc3065	0.09188918
241	0x3cb338a2	0.02187759
242	0x3dcbaac7	0.099446826
243	0x3e031ed8	0.12804735
244	0x3d478217	0.048708048
245	0xbdef706a	-0.11691363
246	0xbd863a0a	-0.06554039
247	0xbd4acd58	-0.049512237
248	0x3d14d471	0.036335412
249	0x3d7c6a9d	0.06162511
250	0xbda00724	-0.07813862
251	0x3da788c5	0.081803836
252	0xbc4528f9	-0.012033694
253	0xbbdf5bf9	-0.006816384
254	0x3cc47279	0.023980366
255	0x3d58b438	0.052906245

bias f4 [50]
0	0x3b764e8f	0.0037583446
1	0x3cba8031	0.022766205
2	0x3d4d5d65	0.050137896
3	0x3d3f9a5f	0.04677808
4	0x3da0df9a	0.078551486
5	0x3d923848	0.07139641
6	0x3d65ad49	0.05607346
7	0x3d58a654	0.052892998
8	0x3d13ac09	0.036052737
9	0xbc37551a	-0.011189723
10	0x3c661374	0.014042724
11	0xbcde9e51	-0.0271751
12	0x3d6f66bf	0.058447596
13	0x3d5ebad9	0.05437741
14	0x3d591925	0.053002495
15	0x3d408915	0.04700573
16	0x3cdcc1af	0.026947824
17	0x3c9c7294	0.019097604
18	0x3d638078	0.05554244
19	0x3d47040d	0.048587848
20	0x3d2e8327	0.042605545
21	0x3d013dce	0.031553082
22	0x3c842c2a	0.01613434
23	0x3c17277e	0.009225724
24	0xb9fdcbeb	-0.0004840785
25	0x3d073ae0	0.033015132
26	0xbcd9f7ce	-0.02660742
27	0x3c90b68d	0.017665172
28	0xbd9aa04f	-0.07550108
29	0x3d647e02	0.055784233
30	0x3d60318c	0.05473475
31	0x3daf02cb	0.085454546
32	0x3d6df251	0.05809242
33	0x3b04b360	0.0020248517
34	0x3d6dd6fa	0.058066346
35	0xbc0e2e5e	-0.008678047
36	0x3d8bb3be	0.068213925
37	0x3d2c4c9b	0.042065244
38	0x3c3ffa2e	0.011717362
39	0x3d7fdb05	0.062464733
40	0x3d386157	0.045014706
41	0xbc867227	-0.016411854
42	0x3d068d04	0.032849327
43	0xbd72a587	-0.05923989
44	0x3d700c8b	0.058605712
45	0x3bc254c4	0.005930515
46	0xbcef4cd4	-0.02921144
47	0x3d13183d	0.035911787
48	0x3d3ab69f	0.045584317
49	0x3cb348cf	0.021885304

weight f4 [15, 50]
0	0x3e428f99	0.1900009
1	0xbe58177e	-0.21102712
2	0xbe0e8240	-0.13916874
3	0xbcd433c8	-0.025903597
4	0xbd12fbce	-0.03588467
5	0xbe270e4d	-0.16314049
6	0x3e01325a	0.12616864
7	0x3d43138b	0.04762606
8	0xbe67df12	-0.22643688
9	0xbdd8d62e	-0.105877265
10	0xbd90599c	-0.07048342
11	0xbdc4c159	-0.09607191
12	0x3ddea9a2	0.10872199
13	0x3e3e02d3	0.18555765
14	0xbe5ed23f	-0.2175989
15	0x3d6a2fc6	0.057174467
16	0x3e4f7c76	0.20262322
17	0x3e193d99	0.14964904
18	0x3e4656d0	0.19369054
19	0xbe096f47	-0.13421355
20	0xbe6343ee	-0.22193882
21	0x3daa5d30	0.08318555
22	0xbdd44429	-0.10364563
23	0x3dd99caa	0.106255844
24	0xbddfcbfc	-0.10927579
25	0x3e08676d	0.13320704
26	0xbe76507b	-0.24054138
27	0x3e682b8f	0.22672866
28	0x3c92bee1	0.017913284
29	0x3e2ea313	0.17054395
30	0xbd179b82	-0.03701354
31	0x3deb6d20	0.11495423
32	0x3dc61e1b	0.09673711
33	0xbc32761f	-0.01089242
34	0x3e06e6c4	0.13173968
35	0xbe4dcdbb	-0.20098011
36	0xbe574bd2	-0.21025017
37	0x3e767c41	0.24070837
38	0x3dc174f2	0.09446134
39	0xbc9bea95	-0.019032756
40	0xbe025586	-0.12727937
41	0xbe36e39e	-0.17860267
42	0x3cabbca6	0.020963978
43	0xbda552df	-0.08072447
44	0x3de9bc18	0.11412829
45	0xbd8779ed	-0.06615052
46	0xbdc941d2	-0.09827007
47	0x3e0cfd2c	0.13768452
48	0xbdb2a0f5	-0.08722106
49	0x3dadeac5	0.08492044
50	0xbe2aab56	-0.16666922
51	0x3d8f5975	0.069994844
52	0xbe44bdaf	-0.19212984
53	0x3e3dbd7d	0.18529315
54	0x3d5bfe1e	0.053709142
55	0xbe27e9b5	-0.16397746
56	0x3e1c98ba	0.15292636
57	0x3d45f9be	0.048333876
58	0xbe04cbce	-0.1296837
59	0xbd7775c0	-0.06041503
60	0xbc41392c	-0.011793416
61	0x3e3a4cec	0.18193406
62	0xbe6be321	-0.23035862
63	0xbd897ce3	-0.067132734
64	0xbe01e422	-0.12684682
65	0xbdcf40c4	-0.10119775
66	0x3e21ee35	0.15813525
67	0x3e356b8f	0.17716812
68	0x3e4a547b	0.19758789
69	0xbe14b752	-0.14523056
70	0xbda80113	-0.0820333
71	0x3e1acbd3	0.15116815
72	0xbe61038b	-0.21974008
73	0x3e51e287	0.2049657
74	0xbdc5973b	-0.096479855
75	0x3ca9ade9	0.02071281
76	0x3e2e0626	0.16994533
77	0xbe66e534	-0.22548372
78	0xbc2b302c	-0.010448497
79	0x3e6c25da	0.23061314
80	0xbdd9ae38	-0.10628933
81	0xbb757673	-0.0037454634
82	0x3e1054a5	0.1409479
83	0xbd9ab63e	-0.07554291
84	0xbdbce04f	-0.09222471
85	0xbe687270	-0.22699904
86	0x3e596d83	0.21233182
87	0x3e5b7ce0	0.21434355
88	0xbca2e1d0	-0.019883066
89	0x3df8a53a	0.121408895
90	0xbe7145d6	-0.23561797
91	0xbe1c0a3f	-0.15238284
92	0xbddf216f	-0.10895049
93	0x3cbde12a	0.023178656
94	0xbe155983	-0.14584927
95	0xbe638e7e	-0.22222325
96	0x3e1950cb	0.14972226
97	0xbd9a8b45	-0.07546095
98	0x3e28cafa	0.1648368
99	0x3d9c6119	0.076357074
100	0xbe342f01	-0.17596056
101	0x3d5d6578	0.054051846
102	0xbd9ef19e	-0.077609286
103	0x3e715312	0.23566845
104	0xbd86f465	-0.06589583
105	0x3e215031	0.15753247
106	0xbd30af49	-0.043135915
107	0xbd7a9033	-0.061172675
108	0xbe39bac4	-0.18137652
109	0xbde031d1	-0.10947002
110	0x3e77af83	0.24188046
111	0x3e26108b	0.16217248
112	0x3d968ae1	0.07350708
113	0x3e731b14	0.23740798
114	0xbe68e838	-0.22744834
115	0xbd9135a7	-0.070903115
116	0x3e63755e	0.22212741
117	0xbd328c76	-0.043590985
118	0x3dfb1d7d	0.12261484
119	0x3e260ece	0.16216585
120	0xbd6e7697	-0.058218565
121	0xbd88a03e	-0.06671189
122	0xbe52a6f5	-0.20571502
123	0xbe19457f	-0.14967917
124	0xbdeb1460	-0.114784956
125	0xbe209f85	-0.15685852
126	0x3e05a7f4	0.1305235
127	0xbe4e8db4	-0.20171243
128	0x3d20a643	0.03922106
129	0x3df6178c	0.1201621
130	0x3e3fea43	0.18741708
131	0x3e849179	0.25892237
132	0x3d15bd52	0.036557503
133	0xbd444d82	-0.04792548
134	0xbe304cfd	-0.17216869
135	0x3d8a6402	0.06757356
136	0xbceebf9e	-0.029144105
137	0x3e165f06	0.14684686
138	0xbdb14771	-0.086562045
139	0x3a92e5f6	0.001120745
140	0xbe5256d1	-0.2054093
141	0xbdb783a1	-0.08960653
142	0x3e5950bc	0.21222204
143	0xbe3fc932	-0.18729094
144	0x3d56f9af	0.05248421
145	0x3cc45c8b	0.02396991
146	0x3c1d40c7	0.009597964
147	0xbe737889	-0.2377645
148	0xbd04ce01	-0.032423023
149	0xbe083c76	-0.13304314
150	0xbd8d9b2c	-0.06914362
151	0xbd336874	-0.043800786
152	0xbe6505b8	-0.22365463
153	0xb9402174	-0.00018323009
154	0x3db8ced9	0.09023828
155	0x3e43a5eb	0.19106261
156	0xbc08c6b2	-0.008348154
157	0x3e11adc2	0.1422644
158	0xbd6e44a4	-0.05817093
159	0xbddb08c6	-0.10695033
160	0x3e291289	0.16510977
161	0x3e08203f	0.13293551
162	0x3e0e1f20	0.13879061
163	0xbe02293b	-0.1271104
164	0x3e5b99ec	0.21445435
165	0xbe58d327	-0.21174298
166	0xbe0f8e71	-0.14019181
167	0x3d985fb7	0.07440131
168	0xbe0231f7	-0.12714373
169	0xbe1bf6a3	-0.15230803
170	0x3e0ab198	0.13544309
171	0xbe471cb6	-0.19444546
172	0x3d71da20	0.05904591
173	0x3dfc9980	0.12333965
174	0xbd94d5bc	-0.07267329
175	0xbe4841d3	-0.1955636
176	0xbdb9bc15	-0.09069077
177	0xbe4af5cf	-0.19820331
178	0xbdfcf467	-0.123513035
179	0x3bbbcc68	0.0057311542
180	0xbe3cd30f	-0.18439887
181	0xbcde9cf8	-0.027174458
182	0x3e20dd87	0.15709506
183	0xbe421285	-0.18952377
184	0x3e6b93d1	0.23005606
185	0x3ce7bd71	0.028288575
186	0xbbac38d3	-0.0052557974
187	0xbda449ca	-0.08021887
188	0x3cadcb89	0.021215217
189	0xbe7bf5cc	-0.24605483
190	0x3e04baa6	0.12961826
191	0x3e06fdcd	0.13182755
192	0x3e7d7413	0.2475131
193	0xbdcde0c5	-0.10052637
194	0x3e536c53	0.20646791
195	0x3da9639a	0.082709506
196	0xbd5b4ce7	-0.053540137
197	0xbd9270d0	-0.071504235
198	0x3e6d2a92	0.2316077
199	0x3e3040c3	0.17212205
200	0xbe673706	-0.22579584
201	0xbe3fdb5d	-0.18736024
202	0xbe41ce09	-0.18926252
203	0x3e3e6d68	0.18596423
204	0x3e64b25f	0.22333668
205	0xbe6c0df4	-0.23052198
206	0xbdeff7bf	-0.11717176
207	0xbe10436b	-0.14088218
208	0x3e83a4c0	0.25711632
209	0xbe65c880	-0.22439766
210	0x3dbfc2d8	0.09363335
211	0xbe65ef65	-0.22454603
212	0x3dac5b4e	0.084158525
213	0x3e4c2f00	0.19939804
214	0x3d9e1b52	0.07720055
215	0x3d6e0056	0.05810579
216	0x3de1bc25	0.11022214
217	0xbd66e77d	-0.05637311
218	0xbe096bbd	-0.13420005
219	0x3e3d602a	0.18493715
220	0x3d50e91c	0.05100356
221	0x3dc67941	0.09691096
222	0xbdc3bfe9	-0.09558088
223	0xbd9af282	-0.07565786
224	0x3e187d34	0.14891511
225	0x3b861dea	0.0040929215
226	0xbd62ecd8	-0.055401653
227	0xbe1b7026	-0.151795
228	0x3d78622e	0.060640506
229	0x3e002087	0.12512408
230	0x3d8db157	0.069185905
231	0xbdf563c4	-0.119819194
232	0x3df368bf	0.11885213
233	0x3e3263f7	0.17420946
234	0xbe62e002	-0.22155765
235	0x3ca6a7cb	0.020343682
236	0x3e6fd173	0.23419742
237	0x3da26ded	0.07931123
238	0xbde90245	-0.11377386
239	0x3e0f7294	0.14008552
240	0x3ddc5075	0.107575335
241	0x3d98ec84	0.07466987
242	0xbda9ecce	-0.0829712
243	0x3d3b5dcb	0.045743745
244	0x3e49aca4	0.19694763
245	0xbd4f9fd0	-0.05068952
246	0xbe6ba30a	-0.23011413
247	0xbe7f83c9	-0.24952616
248	0xbe132cd3	-0.14372568
249	0x3e4f10ec	0.20221299
250	0x3dc32abe	0.09529637
251	0x3dda9383	0.10672667
252	0x3e20ba1a	0.15695992
253	0x3c996a0a	0.018727321
254	0xbc525c82	-0.012839438
255	0x3e01bcd2	0.12669685

bias f4 [15]
0	0x3d473d7b	0.048642617
1	0x3cbe4545	0.02322639
2	0x3cb3b340	0.021936059
3	0x3db075c0	0.08616209
4	0xbcc884b5	-0.024477342
5	0x3d09756a	0.03355924
6	0x3dc60426	0.0966876
7	0x3ca6ae8c	0.020346902
8	0x3c29e8f2	0.01037048
9	0xbdb70fa5	-0.08938531
10	0xbe142483	-0.14467053
11	0x3d6cc741	0.05780721
12	0x3c8f4940	0.017490983
13	0x3cb86ca8	0.022512749
14	0xbd858d42	-0.065210834
